2020-01-09 16:13:48,658 - train - INFO - Second3DFaceAlignmentModel(
  (face_alignment_2D): FaceAlignmentModel2D(
    (conv1): Conv2d(1, 32, kernel_size=(4, 4), stride=(1, 1))
    (bn1): BatchNorm2d(32, eps=1e-05, momentum=0.1, affine=True, track_running_stats=True)
    (pool1): MaxPool2d(kernel_size=2, stride=2, padding=0, dilation=1, ceil_mode=False)
    (dropout1): Dropout(p=0.3, inplace=False)
    (conv2): Conv2d(32, 64, kernel_size=(3, 3), stride=(1, 1))
    (bn2): BatchNorm2d(64, eps=1e-05, momentum=0.1, affine=True, track_running_stats=True)
    (pool2): MaxPool2d(kernel_size=2, stride=2, padding=0, dilation=1, ceil_mode=False)
    (dropout2): Dropout(p=0.3, inplace=False)
    (conv3): Conv2d(64, 128, kernel_size=(2, 2), stride=(1, 1))
    (bn3): BatchNorm2d(128, eps=1e-05, momentum=0.1, affine=True, track_running_stats=True)
    (pool3): MaxPool2d(kernel_size=2, stride=2, padding=0, dilation=1, ceil_mode=False)
    (dropout3): Dropout(p=0.3, inplace=False)
    (conv4): Conv2d(128, 256, kernel_size=(1, 1), stride=(1, 1))
    (bn4): BatchNorm2d(256, eps=1e-05, momentum=0.1, affine=True, track_running_stats=True)
    (pool4): MaxPool2d(kernel_size=2, stride=2, padding=0, dilation=1, ceil_mode=False)
    (dropout4): Dropout(p=0.3, inplace=False)
    (fc1): Linear(in_features=43264, out_features=1000, bias=True)
    (bn5): BatchNorm1d(1000, eps=1e-05, momentum=0.1, affine=True, track_running_stats=True)
    (dropout5): Dropout(p=0.3, inplace=False)
    (fc2): Linear(in_features=1000, out_features=1000, bias=True)
    (bn6): BatchNorm1d(1000, eps=1e-05, momentum=0.1, affine=True, track_running_stats=True)
    (dropout6): Dropout(p=0.3, inplace=False)
    (fc3): Linear(in_features=1000, out_features=136, bias=True)
  )
  (model_2D_to_3D): Model2Dto3DLandmarks(
    (fc1): Linear(in_features=136, out_features=136, bias=True)
    (bn1): BatchNorm1d(136, eps=1e-05, momentum=0.1, affine=True, track_running_stats=True)
    (dropout1): Dropout(p=0.3, inplace=False)
    (fc2): Linear(in_features=136, out_features=136, bias=True)
    (bn2): BatchNorm1d(136, eps=1e-05, momentum=0.1, affine=True, track_running_stats=True)
    (dropout2): Dropout(p=0.3, inplace=False)
    (fc3): Linear(in_features=136, out_features=136, bias=True)
    (bn3): BatchNorm1d(136, eps=1e-05, momentum=0.1, affine=True, track_running_stats=True)
    (dropout3): Dropout(p=0.3, inplace=False)
    (fc4): Linear(in_features=136, out_features=136, bias=True)
    (bn4): BatchNorm1d(136, eps=1e-05, momentum=0.1, affine=True, track_running_stats=True)
    (dropout4): Dropout(p=0.3, inplace=False)
    (fc5): Linear(in_features=136, out_features=136, bias=True)
    (bn5): BatchNorm1d(136, eps=1e-05, momentum=0.1, affine=True, track_running_stats=True)
    (dropout5): Dropout(p=0.3, inplace=False)
    (fc6): Linear(in_features=136, out_features=68, bias=True)
  )
)
Trainable parameters: 44595892
2020-01-09 16:34:32,686 - trainer - INFO -     epoch          : 1
2020-01-09 16:34:32,687 - trainer - INFO -     loss           : 0.8651358020933051
2020-01-09 16:34:32,687 - trainer - INFO -     val_loss       : 0.2959598875359485
2020-01-09 16:35:12,481 - trainer - INFO -     epoch          : 2
2020-01-09 16:35:12,481 - trainer - INFO -     loss           : 0.3639013958604712
…
